…
   ...: model.add(layers.Conv2D(64, (3, 3), activation='relu'))
   ...: model.add(layers.MaxPooling2D((2, 2)))
   ...: model.add(layers.Conv2D(128, (3, 3), activation='relu'))
   ...: model.add(layers.MaxPooling2D((2, 2)))
   ...: model.add(layers.Flatten())
   ...: model.add(layers.Dense(300, activation='relu'))
   ...: model.add(layers.Dense(10, activation='softmax'))

In [10]: model.summary()
_________________________________________________________________
Layer (type)                 Output Shape              Param #   
=================================================================
conv2d_1 (Conv2D)            (None, 146, 146, 32)      2432      
_________________________________________________________________
max_pooling2d_1 (MaxPooling2 (None, 73, 73, 32)        0         
_________________________________________________________________
conv2d_2 (Conv2D)            (None, 71, 71, 64)        18496     
_________________________________________________________________
max_pooling2d_2 (MaxPooling2 (None, 35, 35, 64)        0         
_________________________________________________________________
conv2d_3 (Conv2D)            (None, 33, 33, 64)        36928     
_________________________________________________________________
max_pooling2d_3 (MaxPooling2 (None, 16, 16, 64)        0         
_________________________________________________________________
conv2d_4 (Conv2D)            (None, 14, 14, 128)       73856     
_________________________________________________________________
max_pooling2d_4 (MaxPooling2 (None, 7, 7, 128)         0         
_________________________________________________________________
flatten_1 (Flatten)          (None, 6272)              0         
_________________________________________________________________
dense_1 (Dense)              (None, 300)               1881900   
_________________________________________________________________
dense_2 (Dense)              (None, 10)                3010      
=================================================================
Total params: 2,016,622
Trainable params: 2,016,622
Non-trainable params: 0
_________________________________________________________________
In [17]: model.compile(loss='categorical_crossentropy', optimizer='sgd', metrics = ['
    ...: acc',metrics.categorical_accuracy])

# Create some fake data to match your inputs. Each label seems to be 10 points: (1, 10)
…
In [2]: from keras.layers import Dense
</code></pre>
<h2>Build a model</h2>
<p>Note the <code>name</code> arguments:</p>
<pre><code>In [3]: model = Sequential()
In [4]: model.add(Dense(50, input_shape=(20, 20), name='dense1'))
In [5]: model.add(Dense(30, name='dense2'))
In [6]: model.add(Dense(1, name='dense3'))
In [7]: model.compile('rmsprop', 'mse')
In [8]: model.summary()
_________________________________________________________________
Layer (type)                 Output Shape              Param #   
=================================================================
dense1 (Dense)               (None, 20, 50)            1050      
_________________________________________________________________
dense2 (Dense)               (None, 20, 30)            1530      
_________________________________________________________________
dense3 (Dense)               (None, 20, 1)             31        
=================================================================
</code></pre>
<h2>Rename the layers</h2>
<p>EDIT: it seems newer versions of Keras and the <code>tf.keras</code> API now do not allow renaming layers via <code>layer.name = &quot;new_name&quot;</code>. Instead you must assign your new name to the <em>private</em> attribute, <code>layer._name</code>.</p>
<pre><code>In [9]: for i, layer in enumerate(model.layers):
    ...:     # layer.name = 'layer_' + str(i)    &lt;-- old way
    ...:     layer._name = 'layer_' + str(i)
In [10]: model.summary()
_________________________________________________________________
Layer (type)                 Output Shape              Param #   
=================================================================
layer_0 (Dense)              (None, 20, 50)            1050      
_________________________________________________________________
layer_1 (Dense)              (None, 20, 30)            1530      
_________________________________________________________________
layer_2 (Dense)              (None, 20, 1)             31        
=================================================================
</code></pre>
<p>So we see the layers now have the new names!</p>
<h2>Further inspection</h2>
<p>I can see that the internal identifiers of the layers themselves <strong>are not changed</strong>. I show the first layer's weights, as we see the original label is still present:</p>
<pre><code>In [11]: a = model.layers[0]
In [12]: a.weights
…
<p>If you were to print out the pairwise similarities in sparse format, then it might look closer to what you are after.</p>

<p>I have created two example matrices of random numbers that fits your description:</p>

<pre><code>from sklearn.metrics.pairwise import cosine_similarity
from scipy import sparse

a = np.random.random((3, 10))
b = np.random.random((3, 10))

# Create sparse matrices, which compute faster and give more understandable output
a_sparse, b_sparse = sparse.csr_matrix(a), sparse.csr_matrix(b)

sim_sparse = cosine_similarity(a_sparse, b_sparse, dense_output=False)
print(sim_sparse)
</code></pre>

<p>Output:</p>

<pre><code>  (0, 2)    0.7938732813430508
  (0, 1)    0.7575978172453429
  (0, 0)    0.7897664361147338
  (1, 2)    0.740418315571796
  (1, 1)    0.833981672896221
  (1, 0)    0.7184526671218405
  (2, 2)    0.8746293481677073
  (2, 1)    0.6456666045233884
  (2, 0)    0.7925289217609924
</code></pre>

<p>Hopefully this output makes it clearer, what you are actually getting as output.</p>

<p>Have a look here for a <a href=""https://stackoverflow.com/questions/17627219/whats-the-fastest-way-in-python-to-calculate-cosine-similarity-given-sparse-mat""><strong>few more details</strong></a> on performance aspects, and the <a href=""https://docs.scipy.org/doc/scipy/reference/generated/scipy.sparse.csr_matrix.html"" rel=""noreferrer""><strong>documentation on sparse matrices is here.</strong></a></p>
…
"27385","<p>At coursera, the homework of third week of convolutional networks by professor Andrew Ng, is about this. I recommend you to see that homework. It also implements the <code>YOLO</code> paper. I can't add the code here, but the architecture of the network is as follows:</p>

<pre><code>____________________________________________________________________________________________________
Layer (type)                     Output Shape          Param #     Connected to                     
====================================================================================================
input_1 (InputLayer)             (None, 608, 608, 3)   0                                            
____________________________________________________________________________________________________
conv2d_1 (Conv2D)                (None, 608, 608, 32)  864         input_1[0][0]                    
____________________________________________________________________________________________________
batch_normalization_1 (BatchNorm (None, 608, 608, 32)  128         conv2d_1[0][0]                   
____________________________________________________________________________________________________
leaky_re_lu_1 (LeakyReLU)        (None, 608, 608, 32)  0           batch_normalization_1[0][0]      
____________________________________________________________________________________________________
max_pooling2d_1 (MaxPooling2D)   (None, 304, 304, 32)  0           leaky_re_lu_1[0][0]              
____________________________________________________________________________________________________
conv2d_2 (Conv2D)                (None, 304, 304, 64)  18432       max_pooling2d_1[0][0]            
____________________________________________________________________________________________________
batch_normalization_2 (BatchNorm (None, 304, 304, 64)  256         conv2d_2[0][0]                   
____________________________________________________________________________________________________
leaky_re_lu_2 (LeakyReLU)        (None, 304, 304, 64)  0           batch_normalization_2[0][0]      
____________________________________________________________________________________________________
max_pooling2d_2 (MaxPooling2D)   (None, 152, 152, 64)  0           leaky_re_lu_2[0][0]              
____________________________________________________________________________________________________
conv2d_3 (Conv2D)                (None, 152, 152, 128) 73728       max_pooling2d_2[0][0]            
____________________________________________________________________________________________________
batch_normalization_3 (BatchNorm (None, 152, 152, 128) 512         conv2d_3[0][0]                   
____________________________________________________________________________________________________
leaky_re_lu_3 (LeakyReLU)        (None, 152, 152, 128) 0           batch_normalization_3[0][0]      
____________________________________________________________________________________________________
conv2d_4 (Conv2D)                (None, 152, 152, 64)  8192        leaky_re_lu_3[0][0]              
____________________________________________________________________________________________________
batch_normalization_4 (BatchNorm (None, 152, 152, 64)  256         conv2d_4[0][0]                   
____________________________________________________________________________________________________
leaky_re_lu_4 (LeakyReLU)        (None, 152, 152, 64)  0           batch_normalization_4[0][0]      
____________________________________________________________________________________________________
conv2d_5 (Conv2D)                (None, 152, 152, 128) 73728       leaky_re_lu_4[0][0]              
____________________________________________________________________________________________________
batch_normalization_5 (BatchNorm (None, 152, 152, 128) 512         conv2d_5[0][0]                   
____________________________________________________________________________________________________
leaky_re_lu_5 (LeakyReLU)        (None, 152, 152, 128) 0           batch_normalization_5[0][0]      
____________________________________________________________________________________________________
max_pooling2d_3 (MaxPooling2D)   (None, 76, 76, 128)   0           leaky_re_lu_5[0][0]              
____________________________________________________________________________________________________
conv2d_6 (Conv2D)                (None, 76, 76, 256)   294912      max_pooling2d_3[0][0]            
____________________________________________________________________________________________________
batch_normalization_6 (BatchNorm (None, 76, 76, 256)   1024        conv2d_6[0][0]                   
____________________________________________________________________________________________________
leaky_re_lu_6 (LeakyReLU)        (None, 76, 76, 256)   0           batch_normalization_6[0][0]      
____________________________________________________________________________________________________
conv2d_7 (Conv2D)                (None, 76, 76, 128)   32768       leaky_re_lu_6[0][0]              
____________________________________________________________________________________________________
batch_normalization_7 (BatchNorm (None, 76, 76, 128)   512         conv2d_7[0][0]                   
____________________________________________________________________________________________________
leaky_re_lu_7 (LeakyReLU)        (None, 76, 76, 128)   0           batch_normalization_7[0][0]      
____________________________________________________________________________________________________
conv2d_8 (Conv2D)                (None, 76, 76, 256)   294912      leaky_re_lu_7[0][0]              
____________________________________________________________________________________________________
batch_normalization_8 (BatchNorm (None, 76, 76, 256)   1024        conv2d_8[0][0]                   
____________________________________________________________________________________________________
leaky_re_lu_8 (LeakyReLU)        (None, 76, 76, 256)   0           batch_normalization_8[0][0]      
____________________________________________________________________________________________________
max_pooling2d_4 (MaxPooling2D)   (None, 38, 38, 256)   0           leaky_re_lu_8[0][0]              
____________________________________________________________________________________________________
conv2d_9 (Conv2D)                (None, 38, 38, 512)   1179648     max_pooling2d_4[0][0]            
____________________________________________________________________________________________________
batch_normalization_9 (BatchNorm (None, 38, 38, 512)   2048        conv2d_9[0][0]                   
____________________________________________________________________________________________________
leaky_re_lu_9 (LeakyReLU)        (None, 38, 38, 512)   0           batch_normalization_9[0][0]      
____________________________________________________________________________________________________
conv2d_10 (Conv2D)               (None, 38, 38, 256)   131072      leaky_re_lu_9[0][0]              
____________________________________________________________________________________________________
batch_normalization_10 (BatchNor (None, 38, 38, 256)   1024        conv2d_10[0][0]                  
____________________________________________________________________________________________________
leaky_re_lu_10 (LeakyReLU)       (None, 38, 38, 256)   0           batch_normalization_10[0][0]     
____________________________________________________________________________________________________
conv2d_11 (Conv2D)               (None, 38, 38, 512)   1179648     leaky_re_lu_10[0][0]             
____________________________________________________________________________________________________
batch_normalization_11 (BatchNor (None, 38, 38, 512)   2048        conv2d_11[0][0]                  
____________________________________________________________________________________________________
leaky_re_lu_11 (LeakyReLU)       (None, 38, 38, 512)   0           batch_normalization_11[0][0]     
____________________________________________________________________________________________________
conv2d_12 (Conv2D)               (None, 38, 38, 256)   131072      leaky_re_lu_11[0][0]             
____________________________________________________________________________________________________
batch_normalization_12 (BatchNor (None, 38, 38, 256)   1024        conv2d_12[0][0]                  
____________________________________________________________________________________________________
leaky_re_lu_12 (LeakyReLU)       (None, 38, 38, 256)   0           batch_normalization_12[0][0]     
____________________________________________________________________________________________________
conv2d_13 (Conv2D)               (None, 38, 38, 512)   1179648     leaky_re_lu_12[0][0]             
____________________________________________________________________________________________________
batch_normalization_13 (BatchNor (None, 38, 38, 512)   2048        conv2d_13[0][0]                  
____________________________________________________________________________________________________
leaky_re_lu_13 (LeakyReLU)       (None, 38, 38, 512)   0           batch_normalization_13[0][0]     
____________________________________________________________________________________________________
max_pooling2d_5 (MaxPooling2D)   (None, 19, 19, 512)   0           leaky_re_lu_13[0][0]             
____________________________________________________________________________________________________
conv2d_14 (Conv2D)               (None, 19, 19, 1024)  4718592     max_pooling2d_5[0][0]            
____________________________________________________________________________________________________
batch_normalization_14 (BatchNor (None, 19, 19, 1024)  4096        conv2d_14[0][0]                  
____________________________________________________________________________________________________
leaky_re_lu_14 (LeakyReLU)       (None, 19, 19, 1024)  0           batch_normalization_14[0][0]     
____________________________________________________________________________________________________
conv2d_15 (Conv2D)               (None, 19, 19, 512)   524288      leaky_re_lu_14[0][0]             
____________________________________________________________________________________________________
batch_normalization_15 (BatchNor (None, 19, 19, 512)   2048        conv2d_15[0][0]                  
____________________________________________________________________________________________________
leaky_re_lu_15 (LeakyReLU)       (None, 19, 19, 512)   0           batch_normalization_15[0][0]     
____________________________________________________________________________________________________
conv2d_16 (Conv2D)               (None, 19, 19, 1024)  4718592     leaky_re_lu_15[0][0]             
____________________________________________________________________________________________________
batch_normalization_16 (BatchNor (None, 19, 19, 1024)  4096        conv2d_16[0][0]                  
____________________________________________________________________________________________________
leaky_re_lu_16 (LeakyReLU)       (None, 19, 19, 1024)  0           batch_normalization_16[0][0]     
____________________________________________________________________________________________________
conv2d_17 (Conv2D)               (None, 19, 19, 512)   524288      leaky_re_lu_16[0][0]             
____________________________________________________________________________________________________
batch_normalization_17 (BatchNor (None, 19, 19, 512)   2048        conv2d_17[0][0]                  
____________________________________________________________________________________________________
leaky_re_lu_17 (LeakyReLU)       (None, 19, 19, 512)   0           batch_normalization_17[0][0]     
____________________________________________________________________________________________________
conv2d_18 (Conv2D)               (None, 19, 19, 1024)  4718592     leaky_re_lu_17[0][0]             
____________________________________________________________________________________________________
batch_normalization_18 (BatchNor (None, 19, 19, 1024)  4096        conv2d_18[0][0]                  
____________________________________________________________________________________________________
leaky_re_lu_18 (LeakyReLU)       (None, 19, 19, 1024)  0           batch_normalization_18[0][0]     
____________________________________________________________________________________________________
conv2d_19 (Conv2D)               (None, 19, 19, 1024)  9437184     leaky_re_lu_18[0][0]             
____________________________________________________________________________________________________
batch_normalization_19 (BatchNor (None, 19, 19, 1024)  4096        conv2d_19[0][0]                  
____________________________________________________________________________________________________
conv2d_21 (Conv2D)               (None, 38, 38, 64)    32768       leaky_re_lu_13[0][0]             
____________________________________________________________________________________________________
leaky_re_lu_19 (LeakyReLU)       (None, 19, 19, 1024)  0           batch_normalization_19[0][0]     
____________________________________________________________________________________________________
batch_normalization_21 (BatchNor (None, 38, 38, 64)    256         conv2d_21[0][0]                  
____________________________________________________________________________________________________
conv2d_20 (Conv2D)               (None, 19, 19, 1024)  9437184     leaky_re_lu_19[0][0]             
____________________________________________________________________________________________________
leaky_re_lu_21 (LeakyReLU)       (None, 38, 38, 64)    0           batch_normalization_21[0][0]     
____________________________________________________________________________________________________
batch_normalization_20 (BatchNor (None, 19, 19, 1024)  4096        conv2d_20[0][0]                  
____________________________________________________________________________________________________
space_to_depth_x2 (Lambda)       (None, 19, 19, 256)   0           leaky_re_lu_21[0][0]             
____________________________________________________________________________________________________
leaky_re_lu_20 (LeakyReLU)       (None, 19, 19, 1024)  0           batch_normalization_20[0][0]     
____________________________________________________________________________________________________
concatenate_1 (Concatenate)      (None, 19, 19, 1280)  0           space_to_depth_x2[0][0]          
                                                                   leaky_re_lu_20[0][0]             
____________________________________________________________________________________________________
conv2d_22 (Conv2D)               (None, 19, 19, 1024)  11796480    concatenate_1[0][0]              
____________________________________________________________________________________________________
batch_normalization_22 (BatchNor (None, 19, 19, 1024)  4096        conv2d_22[0][0]                  
____________________________________________________________________________________________________
leaky_re_lu_22 (LeakyReLU)       (None, 19, 19, 1024)  0           batch_normalization_22[0][0]     
____________________________________________________________________________________________________
conv2d_23 (Conv2D)               (None, 19, 19, 425)   435625      leaky_re_lu_22[0][0]             
====================================================================================================
Total params: 50,983,561
Trainable params: 50,962,889
Non-trainable params: 20,672
</code></pre>

<p>Like you, I can't see any flatten layer.</p>
","0","2","28175","12588"
"27425","<p>Whenever you train the network using batch means that you have chosen to train using batch gradient descent. There are three variants for gradient descent algorithm:</p>
…
